Assignment 1/physics_informed_trained_model.pth (torch, 6548 bytes, 8 tensors)

layer_linear0.weight f4 [15, 12]
0	0xbee8162e	-0.45329422
1	0xbe14115e	-0.1445975
2	0x3e2cebf0	0.16886878
3	0x3e4aa9eb	0.19791381
4	0x3f0200fe	0.50782764
5	0x3eb947ba	0.36187536
6	0x3ec0d297	0.37660667
7	0x3e97e8c0	0.29669762
8	0x3e35ea3b	0.17765133
9	0x3e443626	0.19161281
10	0x3f0b50ab	0.54419965
11	0x3f4b1fcd	0.793454
12	0x3fb75348	1.432229
13	0xbef41f55	-0.47680154
14	0xbe2cd91a	-0.16879693
15	0xbeb2c708	-0.34917474
16	0xbdcbe341	-0.099554546
17	0xbee080ef	-0.4384837
18	0xbf017512	-0.5056926
19	0xbf02079b	-0.50792855
20	0xbea9c44c	-0.33157575
21	0x3edc71a8	0.43055463
22	0x3f469ce3	0.7758314
23	0x3f0b188c	0.5433433
24	0x3f376896	0.7164396
25	0xbf3efd2e	-0.7460507
26	0xbf71d19a	-0.9446045
27	0xbf1f25f8	-0.6216731
28	0xbeec7205	-0.4618074
29	0xbe8a999d	-0.27070323
30	0x3d01aa37	0.03165647
31	0x3ee94b2d	0.45565167
32	0x3f18cab0	0.59684277
33	0x3e613b2c	0.21995229
34	0x3d1202ba	0.03564713
35	0x3de78d37	0.113062315
36	0xbe272cd2	-0.16325691
37	0x3e898ee5	0.26866832
38	0x3f084a9a	0.5323883
39	0x3ed3520d	0.41273537
40	0x3ef95233	0.48695526
41	0x3f056bc3	0.52117556
42	0x3f11cf8d	0.5695732
43	0x3f19d6eb	0.60093564
44	0x3f3e17eb	0.74255246
45	0x3f2d6aee	0.67741287
46	0xbcf2b8d1	-0.029629143
47	0xbfa11d11	-1.2586995
48	0x3e6ce8f9	0.23135747
49	0xbfba2e27	-1.4545335
50	0xbf7c0990	-0.9845209
51	0xbdf82224	-0.12115887
52	0x3ea02bea	0.31283504
53	0x3f06cb3d	0.52653867
54	0x3f3f877e	0.7481612
55	0x3f3ce6a1	0.7378941
56	0x3ee87a44	0.4540578
57	0x3e64c039	0.22338952
58	0xbf1b3a29	-0.6063562
59	0xbf896897	-1.0735043
60	0x3f96a1f9	1.176818
61	0x3e08056c	0.13283318
62	0xbe33510d	-0.17511387
63	0xbe4e6382	-0.20155147
64	0xbec6b16c	-0.38807237
65	0x3e1cd543	0.15315728
66	0x3e6feb37	0.23429571
67	0xbeaceb69	-0.33773354
68	0xbe7fd016	-0.24981722
69	0xbe7de047	-0.24792586
70	0xbe1d3305	-0.15351494
71	0x3d0ddb75	0.03463312
72	0xbeb35f8d	-0.35033837
73	0x3f14a6c0	0.5806694
74	0x3e909d20	0.28244877
75	0x3f33fa15	0.7030347
76	0x3ea1f1c2	0.3162976
77	0x3ed62929	0.41828278
78	0x3e9a056a	0.30082256
79	0x3ec0eaa2	0.3767901
80	0x3eb0a1de	0.34498495
81	0x3ec663d9	0.38748053
82	0x3e3fdfa7	0.1873766
83	0x3efa0c96	0.48837727
84	0x3f64f761	0.8943997
85	0x3e16ae83	0.14715008
86	0xbce2036a	-0.027589519
87	0x3e180963	0.14847331
88	0xbe2b1837	-0.16708456
89	0xbe60c59f	-0.21950386
90	0xbedb4158	-0.4282329
91	0xbeb72b95	-0.35775438
92	0xbf14edd0	-0.58175373
93	0xbf0663ad	-0.52495843
94	0x3d82fe9c	0.06396219
95	0x3f8c2b26	1.0950668
96	0x3d7cd02a	0.06172196
97	0x3f15df0b	0.5854346
98	0x3f2061c6	0.6264919
99	0x3e9e4024	0.3090831
100	0x3eb7c5e2	0.3589316
101	0x3e11328c	0.14179438
102	0xbdd79c64	-0.10527876
103	0xbebab158	-0.36463428
104	0xbf3bf761	-0.73424345
105	0xbf95b9bf	-1.169731
106	0xbf04cccc	-0.51874995
107	0x3ed31197	0.41224357
108	0xbde7c2ea	-0.11316474
109	0xbeab1f70	-0.33422422
110	0xbf033315	-0.5124982
111	0xbdb6069e	-0.08887981
112	0xbf00d4d3	-0.50324744
113	0xbf2395fd	-0.6390074
114	0xbf59c309	-0.85063225
115	0xbf5002ba	-0.8125416
116	0xbef43d30	-0.47702932
117	0x3dae96b5	0.08524839
118	0x3d114805	0.035469074
119	0xbe959c8a	-0.29220992
120	0xbe8eb5e5	-0.2787315
121	0x3f48be5a	0.78415453
122	0x3e693633	0.22774582
123	0xbe1e32cf	-0.1544907
124	0xbebc5956	-0.36786908
125	0xbe3b9992	-0.18320301
126	0x3de80028	0.11328155
127	0x3df304f3	0.11866178
128	0x3e762f0e	0.24041387
129	0x3ed19c91	0.40939763
130	0x3f057359	0.5212913
131	0x3f3d8f0c	0.740464
132	0xbcfacf03	-0.030616289
133	0xbe5953c5	-0.21223362
134	0xbd80df8b	-0.062926374
135	0x3c3c5fe9	0.011497476
136	0xbd625df3	-0.05526538
137	0x3e603e3a	0.21898738
138	0x3e0a2047	0.13488875
139	0xbe13d47f	-0.1443653
140	0x3e070f1f	0.13189362
141	0x3ef6941b	0.4815987
142	0x3f776b5b	0.96648186
143	0x3fa5d758	1.2956343
144	0xbeaa4f20	-0.33263493
145	0xbe7cafdf	-0.24676464
146	0xbe929f5d	-0.2863721
147	0xbf14dda0	-0.5815067
148	0xbeb46dbd	-0.35239974
149	0xbd9ff537	-0.07810443
150	0x3e13b919	0.14426078
151	0xbeb3a249	-0.3508475
152	0xbed0ee65	-0.4080688
153	0x3e39fb2e	0.18162224
154	0x3f6aab0b	0.9166724
155	0x3f8862a4	1.0655103
156	0xbf41e9be	-0.7574729
157	0x3f363d40	0.7118721
158	0x3f72f37d	0.94902784
159	0x3f7009dd	0.9376505
160	0x3f3cc40d	0.7373665
161	0x3ea91d09	0.33029965
162	0xbea50c14	-0.32235777
163	0xbf4448db	-0.7667367
164	0xbf8559c6	-1.0418022
165	0xbf3c284b	-0.7349898
166	0xbde27d18	-0.11059016
167	0x3f19d543	0.60091037
168	0x3f6a6e59	0.9157463
169	0x3f8b2834	1.0871644
170	0xbde74a69	-0.112934895
171	0xbf8ae525	-1.0851179
172	0xbfc23cc4	-1.5174794
173	0xbfbec07a	-1.4902489
174	0xbf61bccf	-0.88178724
175	0x3d2ecc9b	0.042675596
176	0x3f96f31a	1.1792939
177	0x3fd1f273	1.6402115
178	0x3ef3f56d	0.47648183
179	0xbf9f2bbf	-1.2435225

layer_linear0.bias f4 [15]
0	0xbec6a0fa	-0.3879469
1	0x3f70aba0	0.9401188
2	0x3f6b6551	0.9195147
3	0x3dc13970	0.094347835
4	0x3e75c9e8	0.24002802
5	0x3f3c8f96	0.73656595
6	0xbe321d6b	-0.17394035
7	0x3ea3952f	0.31949756
8	0xbc447d4b	-0.011992763
9	0x3c9c23fe	0.019060131
10	0xbf027dfa	-0.50973475
11	0xbea66541	-0.32499126
12	0xbf417299	-0.7556549
13	0xbf44ad91	-0.7682734
14	0x3f0dc231	0.5537444

layer_linear1.weight f4 [15, 15]
0	0x3f300207	0.68753093
1	0xc06c29b6	-3.6900458
2	0xc027417b	-2.6133716
3	0x3f166ed6	0.5876287
4	0x3db8ae77	0.090176515
5	0xbfe7efa1	-1.8120004
6	0x3eff8896	0.49908894
7	0xc02a69d6	-2.6627097
8	0xbdc01e5d	-0.09380791
9	0x3f232e19	0.63742214
10	0x3e92e395	0.28689256
11	0x3d001bda	0.03127656
12	0x3e952639	0.29130724
13	0x3f7ffa9d	0.9999178
14	0xbf89edb0	-1.0775661
15	0x3f1310b4	0.5744736
16	0xbfbd7acc	-1.48031
17	0xc01dfa4e	-2.4684024
18	0xbefadb5a	-0.48995477
19	0xbf81181e	-1.0085485
20	0xbef2bece	-0.47411197
21	0x3d265881	0.040611748
22	0x3f1bcaab	0.6085612
23	0x3faab9a3	1.3337902
24	0x3e9e8d28	0.3096707
25	0x3e34e51d	0.17665525
26	0x3ed64a74	0.41853678
27	0xbe8edbe9	-0.27902153
28	0x3fd00af7	1.6253346
29	0xbfefce6b	-1.8734869
30	0xbf1b62d3	-0.6069767
31	0x3ec2fc0c	0.38082922
32	0xbe8310ef	-0.25598857
33	0xbe45d6db	-0.19320242
34	0xbea85f92	-0.32885414
35	0xbdfb4ecd	-0.122708894
36	0x3e1e811a	0.15478936
37	0xbdecc5ff	-0.11561202
38	0xbd647de9	-0.05578414
39	0x3dd33003	0.10311892
40	0x3ede49dc	0.43415725
41	0x3eb05eac	0.3444723
42	0x3e0c25a2	0.13686231
43	0x3f04039b	0.51568
44	0xbf21c8e8	-0.63197184
45	0x3f4ea88c	0.8072593
46	0x3ee763f3	0.45193443
47	0xbde21a16	-0.11040132
48	0xbe97822e	-0.29591507
49	0xbf0ad337	-0.5422854
50	0xbea1e2b3	-0.3161827
51	0x3eef47ba	0.4673441
52	0x3e852d66	0.260112
53	0xbb865f4a	-0.004100715
54	0xbd473ebc	-0.048643813
55	0xbc159142	-0.00912887
56	0x3f852114	1.040072
57	0xbcb54390	-0.022126943
58	0xbe339a6c	-0.17539376
59	0x3e47fb16	0.19529375
60	0xbe7a3110	-0.24432778
61	0xbe92062f	-0.28520343
62	0xbf4686dd	-0.77549535
63	0x3c1176ec	0.008878451
64	0xbf11676c	-0.56798434
65	0x3d07f92b	0.03319661
66	0xbdbf54fe	-0.09342383
67	0x3ea2ede2	0.31822115
68	0x3e9297ab	0.28631338
69	0xbf156adc	-0.5836618
70	0xbe885d69	-0.26633766
71	0xbdbc484f	-0.09193479
72	0xbf234b72	-0.63786995
73	0x3f8d4e0d	1.1039444
74	0x3ef33a29	0.4750531
75	0xbd979e2d	-0.074032165
76	0x3f1d2da2	0.61397755
77	0x3daf8d4c	0.08571872
78	0x3deb292a	0.11482461
79	0xbefc8894	-0.4932295
80	0x3e53ec97	0.2069572
81	0x3d728fd4	0.059219196
82	0x3e7523f6	0.239395
83	0xbe3eb711	-0.18624522
84	0xbee69644	-0.4503652
85	0xbf2995fd	-0.6624449
86	0xbde7f373	-0.11325731
87	0xbe67cf2a	-0.2263762
88	0x3d1327d9	0.035926674
89	0xbd48b7f0	-0.04900354
90	0xbea9f950	-0.33198023
91	0x3eb3446f	0.35013148
92	0x3fb1d514	1.3893151
93	0x3e5f541f	0.21809433
94	0x3fd3fc26	1.6561325
95	0x3e11c86a	0.14236608
96	0xbf011639	-0.50424534
97	0xbf91ac96	-1.1380794
98	0xbfd1e931	-1.6399289
99	0xbe861b72	-0.26192814
100	0xbe987b0c	-0.29781377
101	0xbeb35ee6	-0.3503334
102	0xbda90fde	-0.082549796
103	0xc05bfb92	-3.4372296
104	0xc00aa3ad	-2.16624
105	0xbe767126	-0.240666
106	0xbc203741	-0.009778799
107	0x3f2f0326	0.6836418
108	0xbf7e399b	-0.9930665
109	0x3e82d54b	0.25553355
110	0x3e4c8969	0.19974293
111	0xbf91bb68	-1.1385317
112	0x3e7d03ed	0.24708529
113	0xbf07dad0	-0.53068256
114	0x3f6a7046	0.91577566
115	0xbf3d36b9	-0.73911625
116	0xbe5158f0	-0.20444083
117	0x3f0a9374	0.54131246
118	0xbc2f61bc	-0.010704454
119	0x3e47a50a	0.19496551
120	0xbf2f7dda	-0.6855141
121	0x3ea65b78	0.3249166
122	0xbf5db295	-0.8660062
123	0xbf43390f	-0.7625894
124	0xbfc833f2	-1.5640852
125	0x3e241545	0.16023739
126	0xbf1fe2d3	-0.6245548
127	0x3f131187	0.5744862
128	0x3de157bd	0.11003063
129	0x3f83bbb2	1.0291655
130	0xbf1d4a32	-0.6144134
131	0x3dfc8d70	0.123316646
132	0x3ecebea6	0.40379828
133	0x3f478364	0.7793486
134	0x3edc68b8	0.43048644
135	0x3ee0019d	0.4375123
136	0xbfc3167c	-1.5241237
137	0xbf0eb315	-0.5574201
138	0x3ecbde69	0.39818123
139	0x3e3faa38	0.18717277
140	0xbfa7e927	-1.3118027
141	0x3ee0f299	0.43935087
142	0xbfb85bef	-1.4403056
143	0xbe5f1395	-0.21784814
144	0x3f346cec	0.704787
145	0x3ee051a4	0.43812287
146	0x3f0cb359	0.5496116
147	0x3f9c40bb	1.2207254
148	0x3efea76e	0.49737114
149	0xbe4faff6	-0.20281968
150	0xbe311212	-0.1729205
151	0xbed96526	-0.42459983
152	0xbf36d18d	-0.714135
153	0xbe397df5	-0.18114455
154	0x3d0995de	0.03359019
155	0x3d5ec897	0.054390516
156	0xbc3f7d62	-0.011687608
157	0x3da262aa	0.07928975
158	0x3f43e324	0.76518464
159	0xbe2061bc	-0.15662283
160	0x3b38aa7e	0.0028177793
161	0xbe6c7dfd	-0.23094936
162	0xbf115146	-0.5676464
163	0x3da46387	0.08026796
164	0xbf77c570	-0.9678564
165	0xbf001cd4	-0.5004399
166	0xbf4ac2a4	-0.7920325
167	0xbebd4428	-0.36966062
168	0x3f61ba7a	0.88175166
169	0x3e3ac023	0.18237357
170	0x3eead28d	0.45863762
171	0x3e1de55d	0.15419526
172	0xbf32496a	-0.6964327
173	0x3e34d3e2	0.17658952
174	0xbe946acb	-0.28987727
175	0xbeff485b	-0.4985989
176	0xbfaf64ee	-1.3702676
177	0xbf0b7f16	-0.5449079
178	0xbd08982f	-0.03334826
179	0xbe9ea2b7	-0.30983517
180	0x3f14be08	0.58102465
181	0xbeabbf5f	-0.33544442
182	0xbe4868ea	-0.19571272
183	0x3f0c2cd5	0.5475591
184	0x3dd79d48	0.10528046
185	0xbddedb79	-0.10881705
186	0x3eeed202	0.46644598
187	0xbe2dc9b9	-0.16971482
188	0x3d89bce0	0.06725478
189	0xbe8ffda8	-0.28123212
190	0x3ebde406	0.3708803
191	0xbd806665	-0.0626953
192	0xbd78592d	-0.06063192
193	0xbe957cda	-0.29196817
194	0xbe1b28f8	-0.15152347
195	0x3d67a373	0.05655236
196	0x3f7ca786	0.9869312
197	0x3f817f63	1.0117
198	0xbe1b9289	-0.15192617
199	0xbecd1298	-0.40053248
200	0x3db8cc4e	0.09023343
201	0xbe7381ef	-0.23780034
202	0x3f367b36	0.71281755
203	0xbe01ce88	-0.12676442
204	0xbe23ba74	-0.15989095
205	0x3e996935	0.2996308
206	0x3f231850	0.6370897
207	0xbe10520b	-0.14093797
208	0x3ecdb590	0.40177584
209	0x3ef68652	0.48149353
210	0x3e79f5a6	0.24410114
211	0x3f0e6405	0.5562137
212	0x3efbc46f	0.49173304
213	0xbca1080b	-0.019657155
214	0x3fdbbc13	1.7166771
215	0x3e5463a5	0.20741136
216	0xbec7dd6d	-0.39036122
217	0xbdd4b5ff	-0.103862755
218	0xbf2ec43c	-0.6826818
219	0x3e82e9d2	0.25569016
220	0xbf846ad1	-1.0345098
221	0x3ecf02b6	0.40431756
222	0xbdef5d78	-0.116877496
223	0xc05de9de	-3.4673991
224	0xbfee4f72	-1.8617995

layer_linear1.bias f4 [15]
0	0xbf22f271	-0.63651186
1	0xbe79b7d0	-0.24386525
2	0x3e8ca020	0.27465916
3	0xbe780f26	-0.24224529
4	0x3eb90fa7	0.36144754
5	0x3f108e2a	0.56466925
6	0x3e3ad93d	0.18246932
7	0xbe4ac634	-0.19802171
8	0xbdd280f6	-0.102785036
9	0xbf30832e	-0.68950164
10	0x3e8c8c16	0.27450627
11	0x3f1a710b	0.6032874
12	0x3eaeb3b4	0.34121478
13	0x3d43aeb6	0.04777404
14	0x3e199f63	0.15002207

layer_linear2.weight f4 [15, 15]
0	0xbf88f2dd	-1.0699116
1	0xbdde993b	-0.1086907
2	0x3ddcaa87	0.10774713
3	0x3ef96a59	0.4871395
4	0xbf34d201	-0.7063294
5	0xbf444c6e	-0.7667912
6	0x3f082e94	0.5319607
7	0x3d21b168	0.03947583
8	0xbeaf9a54	-0.3429743
9	0xbecd4d6b	-0.40098128
10	0xbf0e3475	-0.55548793
11	0xbeffeafd	-0.4998397
12	0xbf0057a3	-0.50133723
13	0xbc2333b3	-0.0099610565
14	0x3ec71908	0.38886285
15	0x3e3b2a6d	0.18277903
16	0xc04d97ef	-3.2123983
17	0xbe22177f	-0.15829276
18	0x3e954472	0.29153782
19	0xbf83c786	-1.0295265
20	0xbde6d935	-0.11271898
21	0x3f0014a1	0.5003148
22	0x3f0b51cd	0.54421693
23	0xbe9f34b9	-0.31094912
24	0x3f1cc4eb	0.6123797
25	0x3e6fe48e	0.2342703
26	0x3ead8ba7	0.3389561
27	0xbe3d6388	-0.18495
28	0xbfa33aa1	-1.2752267
29	0x403dcf29	2.965769
30	0xc01b5373	-2.4269683
31	0x3fbc3571	1.4703809
32	0x3f16a903	0.5885164
33	0x3f222475	0.6333688
34	0x3eb2da5d	0.34932223
35	0xbeaf666d	-0.34257832
36	0x3fc0d1d0	1.506403
37	0xbe22517e	-0.158514
38	0x3e980584	0.29691708
39	0xbf7c35b0	-0.9851942
40	0x3f2c0cc2	0.67206967
41	0xbff7f4d2	-1.9371588
42	0xbed8d054	-0.42346442
43	0x3dc68057	0.09692448
44	0xbf9dfca6	-1.2342727
45	0x3f13bdb4	0.5771134
46	0x3e3f588c	0.18686122
47	0xbe5fecbe	-0.21867654
48	0x3db95a1a	0.09050389
49	0xbd3cd97b	-0.046105843
50	0x3c8c36d3	0.017115986
51	0x3d03b90b	0.032158893
52	0x3a1f928d	0.00060872064
53	0x3dedca62	0.11610867
54	0x3f2e06d0	0.67979145
55	0x3ec3be4d	0.38231125
56	0xbdc8a3f8	-0.097968996
57	0x3edbd917	0.42939064
58	0xbe097c96	-0.13426432
59	0xbd7dba05	-0.06194498
60	0x3df86058	0.12127751
61	0xbda8866f	-0.08228766
62	0x3de14c83	0.110009216
63	0x3ea3ea8f	0.32014892
64	0xbe9e0eb5	-0.30870596
65	0xbe8d466c	-0.2759279
66	0xbc76279f	-0.015024095
67	0x3dfcd8bf	0.123460285
68	0x3e8d1cb0	0.2756095
69	0x3ee858b6	0.4538018
70	0xbe93d56f	-0.28873774
71	0x3ebf0744	0.3731023
72	0xbe4da48b	-0.200823
73	0xbd7101c4	-0.058839574
74	0x3e3ffc9d	0.18748708
75	0xbf38e808	-0.7222905
76	0x3ee4debb	0.4470118
77	0x3e90e0c7	0.28296492
78	0x3c4992c3	0.012303057
79	0x3e8f64d9	0.28006628
80	0x3e56d554	0.20979816
81	0x3f299e32	0.6625701
82	0x3ec0e6d5	0.3767611
83	0x3e31950e	0.17342016
84	0xbf37bbf7	-0.71771187
85	0x3f23ffd3	0.6406223
86	0xbf0a7242	-0.54080594
87	0xbe4d6b95	-0.2006057
88	0x3d70cf98	0.058791727
89	0xbf686e8d	-0.9079369
90	0xbd69e363	-0.05710162
91	0x3ee952c3	0.45570955
92	0xbdf82ecd	-0.121183015
93	0x3f2194c7	0.6311764
94	0xbe2b9ff0	-0.1676023
95	0xbe58df4e	-0.21178934
96	0x3ecee905	0.40412155
97	0xbec7b910	-0.3900838
98	0xbe84bbe5	-0.25924602
99	0xbe10260b	-0.14077012
100	0xbeb29666	-0.3488037
101	0xbe147bfb	-0.1450042
102	0x3e9ef474	0.31045878
103	0x3e884e01	0.26622012
104	0xbe029589	-0.12752356
105	0x3fa7c356	1.3106487
106	0xbf326c89	-0.6969686
107	0xbd2aa6ce	-0.041662984
108	0xbebbd412	-0.36685234
109	0xbf6a79c4	-0.9159205
110	0xbf011c88	-0.5043416
111	0xbf9200af	-1.1406459
112	0x3cd5c773	0.026096081
113	0x3f0f582e	0.55993927
114	0x3fc72961	1.5559503
115	0xbee465f8	-0.44609046
116	0x3e8fd68a	0.28093368
117	0x3f0646cd	0.52451783
118	0xbf8f1b8f	-1.1180285
119	0x3f40f00c	0.7536628
120	0xbf320efe	-0.69554126
121	0xbf71d829	-0.9447046
122	0xbf05765f	-0.52133745
123	0xbecb86e2	-0.39751345
124	0xbf03efcb	-0.5153777
125	0xbea0a6e5	-0.3137733
126	0xbb7ffe01	-0.003906131
127	0xbe0b09f4	-0.13578016
128	0x3e48f8e2	0.19626191
129	0x3f1e68a4	0.6187842
130	0xbe666c51	-0.22502257
131	0x3eb14fc6	0.34631175
132	0x3e5eeea8	0.21770728
133	0x3dc00d53	0.093775414
134	0x3eea1d51	0.45725492
135	0x3eb279d2	0.34858567
136	0xbc1058eb	-0.008810262
137	0xbec7f7fc	-0.39056385
138	0x3d9d0dd3	0.076686524
139	0x3e8a23e6	0.26980513
140	0x3e2fddfd	0.17174526
141	0xbdf387a4	-0.11891106
142	0xbebc2bde	-0.36752218
143	0x3e8a6aff	0.27034757
144	0xbeaec912	-0.3413778
145	0x3e19985b	0.14999525
146	0x3f1cff55	0.61327106
147	0xbcd76050	-0.026291043
148	0xbf0ae3db	-0.5425393
149	0xbd64b27e	-0.055834286
150	0x3cd49711	0.02595094
151	0xbf261fea	-0.64892447
152	0xbb8fb4c8	-0.0043855645
153	0x3e91351e	0.28360838
154	0x3e321175	0.17389472
155	0x3eee91b8	0.4659555
156	0xbec717e6	-0.3888542
157	0xbe8f04e9	-0.27933434
158	0xbf13c5c3	-0.57723635
159	0x3f000796	0.50011575
160	0x3de28e9d	0.110623576
161	0x3ecf0920	0.4043665
162	0x3f2aee52	0.667699
163	0x3cab8572	0.020937655
164	0x3dcb9482	0.09940435
165	0x3f21b9ec	0.6317432
166	0xbf45ab2d	-0.7721432
167	0x3e6307c0	0.22170925
168	0xbe6981f6	-0.22803482
169	0xbd539b30	-0.05166167
170	0xbd838d98	-0.06423491
171	0xc00c105f	-2.1884992
172	0x3f55983d	0.8343542
173	0x3f4ca51d	0.7993944
174	0x3fb02d8e	1.3763902
175	0x3e3f9e17	0.1871265
176	0x3e82c36e	0.25539726
177	0x3eda44b8	0.42630553
178	0xbf1f18e5	-0.6214736
179	0x3fd03386	1.6265724
180	0xbe17ee72	-0.14837053
181	0x3e5f5eb3	0.21813469
182	0x3d9f0271	0.077641375
183	0xbf9ad38a	-1.2095807
184	0x3cff9ffa	0.031204212
185	0x3dcb9aa3	0.09941604
186	0xbe9fb880	-0.3119545
187	0x3f91ff14	1.1405969
188	0x3f4db844	0.8035929
189	0xbf076ac5	-0.5289729
190	0x3e429f48	0.19006073
191	0x3efc3e66	0.49266356
192	0xbeeae992	-0.45881325
193	0xbee21d39	-0.4416292
194	0x3e40773a	0.18795481
195	0x3d7ae797	0.061256018
196	0xbf2da65b	-0.67831963
197	0xbedc3b4f	-0.43014
198	0xbfca60cb	-1.5810789
199	0x3d13849b	0.036015134
200	0xbece9539	-0.40348223
201	0xbfc88fc5	-1.5668875
202	0x3e56457a	0.2092494
203	0xbe1c10b0	-0.15240741
204	0xbf87fa9c	-1.0623355
205	0x3eaa16ef	0.33220622
206	0x3ef70cf1	0.4825206
207	0xbf31c783	-0.69445056
208	0xbed5c29c	-0.41750038
209	0x3fa449a9	1.2834979
210	0xbeb05696	-0.3444106
211	0x3e702970	0.23453307
212	0x3edcd56c	0.43131578
213	0x3f136e8c	0.57590556
214	0xbf301818	-0.68786764
215	0xbfa397be	-1.2780683
216	0xbc90a678	-0.017657503
217	0x3eccae49	0.3997672
218	0x3f144185	0.57912475
219	0x3fe8c34e	1.8184602
220	0xbf0d8de7	-0.5529465
221	0xbfe0ab3b	-1.7552255
222	0x3eab2d1f	0.33432862
223	0xbeeb1975	-0.4591786
224	0xbd1cff04	-0.03832914

layer_linear2.bias f4 [15]
0	0x3e6013ee	0.21882603
1	0xbec3f9f9	-0.38276652
2	0xbe45223a	-0.19251338
3	0x3d1901ed	0.037355352
4	0xbec0e4e3	-0.37674627
5	0xbc5cbe6b	-0.013473134
6	0x3f025fdf	0.5092754
7	0xbea814ee	-0.32828468
8	0x3e690da1	0.22759105
9	0x3eae679d	0.34063426
10	0xbd187039	-0.0372164
11	0xbec5b3df	-0.38613793
12	0xbd8c4e37	-0.06850856
13	0x3d4f63b4	0.050632194
14	0xbf8228b7	-1.0168675

last_layer.weight f4 [3, 15]
0	0x3d9f2ff5	0.07772819
1	0x3c274e54	0.010211546
2	0xbe4d65fb	-0.20058434
3	0xbeb3b584	-0.35099423
4	0xbe636253	-0.22205476
5	0x3e19b5ab	0.15010707
6	0xbc12562a	-0.008931676
7	0xbfa067cd	-1.2531677
8	0xbeddece1	-0.43344787
9	0x3e4b5111	0.19855143
10	0xbf208854	-0.6270802
11	0xbf9de321	-1.2334939
12	0x3f2bf47b	0.6716992
13	0xbdd52466	-0.10407333
14	0xbf4ae7df	-0.7926006
15	0xbd0f0804	-0.034919754
16	0xbbee7092	-0.007276603
17	0xc0093edb	-2.1444614
18	0x3d02143a	0.03175757
19	0x3f00f65f	0.5037593
20	0xbfa03e1f	-1.2518958
21	0xbf13ee25	-0.57785255
22	0xbe48ea69	-0.1962067
23	0x3d3b8d9b	0.045789342
24	0x3e9e9b0e	0.30977672
25	0xbe378064	-0.17920071
26	0x3c975f48	0.01847805
27	0x3f69639c	0.91167617
28	0x3fd16616	1.6359279
29	0xbfc4e377	-1.5381917
30	0x3fa1b615	1.2633692
31	0x400c34a5	2.1907132
32	0x3b193248	0.0023375917
33	0xbf103cba	-0.5634266
34	0xbf242de5	-0.6413253
35	0x3ea98dca	0.3311599
36	0xbdf7ae99	-0.12093849
37	0xbf465871	-0.774787
38	0x3f9362ba	1.1514504
39	0xbed509db	-0.41609082
40	0x3e3bc8f5	0.18338378
41	0xbdbeda6f	-0.09319007
42	0x3d8d9aed	0.069143154
43	0xbd8cfcff	-0.06884193
44	0x3c74d87e	0.014944194

last_layer.bias f4 [3]
0	0xbb03cf2c	-0.0020112498
1	0xbe8f396e	-0.27973503
2	0x3e5ef714	0.2177394
