Assignment 1/physics_informed_trained_model.pth (torch, 8290 bytes, 12 tensors)

layer_linear0.weight f4 [12, 12]
00000000: 81fa b7be b6ce 11bf f524 f9be 8d43 76be
00000010: e75b 2b3e e5d4 203e 9eb2 f33e b1d0 18bf
00000020: 7445 943e 3df5 823e 9b32 2dbe 8d27 503e
00000030: 7f1c d6be 4c59 49be 704b 063f 23ed 9d3d
00000040: d14b 0d3f 5b84 c33e bc45 80be 5743 fd3e
00000050: c1dd 47be 7ad5 263f bc73 26be 65af a03e
00000060: a0eb c43e 6c33 1b3d 3edc c13e ea0a 13be
00000070: a8a2 ab3e 345f 1ebe 526f cfbe 20dd 82be
00000080: c861 78be 0f77 b4bd 1b50 363d 6de7 0dbe
00000090: 56f4 c13d df8e 8bbe aa3e e13c c0cb e83e
000000a0: 3bcd 1b3e f932 623e 1156 fdbc 5d5e 20be
000000b0: ed26 b7be 1597 d3bd 4f12 dd3c 3644 c1be
000000c0: d03b e33e 017f 853d 4c5e 98be c628 5a3e
000000d0: f272 0bbe 2745 963e ea65 f13e 9c1a d43d
000000e0: ec10 e23d 28fc 31be 155a 7f3d 941d 6dbe
000000f0: 9f22 023e 3948 c03d cbcf 0c3e d027 8dbe
00000100: 5271 11be 4b12 5c3f 1c44 903d 0147 9e3e
00000110: 2691 953d 45f3 d6be 99c4 f9bd 7609 9cbf
00000120: 3c0f 1f3e 0460 a13e fc68 fbbe ea76 393e
00000130: e69d 09be eb64 263d 4aa8 833d 9b42 bfbd
00000140: ec9c a1bc c4e3 723d 3bd2 183f f938 58bd
00000150: 4ed8 533e fee7 e8be 9a1b e13e 234b 423e
00000160: be15 c33e f164 c73e f17e 8f3e 9037 bb3e
00000170: 678e 1cbe 4c21 573e e73d 293f e063 563d
00000180: 515c 873b b6ef 45be 40cd 0ebf 6720 cd3e
00000190: 51e8 9abc b879 c33e a0f1 4b3b cbba 273f
000001a0: 7147 61bd e06b 233e 1bbc 1e3e 5e60 2c3f
000001b0: f917 263e 44e0 7dbe b342 54be 3e1b 1ebd
000001c0: 6a02 223b 4b3a 56be 2614 6bbe d5f0 b93e
000001d0: 5dc3 15bf c39e 493e bf9d dc3e 895b d1bd
000001e0: 6f1b 063f 3cd8 bebe 0af4 afbe a0e1 e9be
000001f0: b25b f53d ce5c 3bbd 0ffa d03e 1d30 f2be
00000200: 2f9d 27be faf1 8d3c 0149 813d 5fbe 013f
00000210: 04d9 53bb f94b 9abe fd4c e23e 86ff 1d3e
00000220: 6237 9dbe bba3 b33d 2a33 22be 7e0c acbe
00000230: 3bd9 393c 8ed2 89bd 003e 24bf 5f8a 753d
-0.35933307 -0.5695604 -0.48661008 -0.24049206 0.16734277 0.15706213 0.47597212 -0.5969344
0.2895924 0.25577727 -0.16913836 0.20327587 -0.41818616 -0.1966297 0.5245886 0.07711246
0.5519381 0.38186917 -0.25053203 0.4946544 -0.19518186 0.6516949 -0.16255087 0.31383815
0.38461018 0.037890837 0.37863344 -0.14359632 0.33522534 -0.15466005 -0.40514618 -0.2555933
-0.2425605 -0.08811771 0.04450999 -0.13857813 0.094704315 -0.2725744 0.0274957 0.4546795
0.15215008 0.22089757 -0.030924829 -0.15660997 -0.35771886 -0.10331551 0.02698627 -0.37747353
0.4438157 0.06518365 -0.29759443 0.21304616 -0.13618067 0.29349634 0.47148067 0.10356638
0.11038384 -0.17381346 0.06234177 -0.23155814 0.1270852 0.093887754 0.13751142 -0.27569437
-0.14203385 0.8596541 0.07044241 0.30913547 0.073030755 -0.41982475 -0.12195701 -1.2190387
0.15533155 0.31518567 -0.49103534 0.18111768 -0.1343914 0.040623587 0.06428583 -0.09338876
-0.019728146 0.059299245 0.59695786 -0.05278871 0.20687982 -0.45489496 0.4396637 0.18973975
0.38102525 0.389442 0.28026536 0.36565828 -0.15288697 0.21008795 0.6611008 0.052341342
0.004130878 -0.19329724 -0.55781937 0.40063784 -0.018909605 0.38178802 0.0031119362 0.655194
-0.054999772 0.1595912 0.15501444 0.67334545 0.16220082 -0.24792582 -0.20728569 -0.0386002
0.0024720677 -0.20920675 -0.22956905 0.36316553 -0.58501226 0.19689469 0.430891 -0.10222537
0.5238561 -0.3727435 -0.34365875 -0.4567995 0.1198038 -0.045742802 0.4081578 -0.47302333
-0.16368555 0.017327297 0.063127525 0.5068111 -0.0032325396 -0.30136088 0.44199362 0.15429506
-0.30706316 0.087714635 -0.1583983 -0.3360328 0.011343296 -0.06729613 -0.64157104 0.059946414

layer_linear0.bias f4 [12]
00000000: 40be 88be 1f9c 373e 8725 58bb be68 743c
00000010: 8e0c 303d 6e58 6abd 8f3a 343e 2a7a 6b3e
00000020: a6e8 eb3d be73 743e 52df 6ebe e24e 44be
-0.2670765 0.17930649 -0.0032981352 0.014917551 0.042980723 -0.05721324 0.17600463 0.2299582
0.115189835 0.23872277 -0.23327377 -0.19170716

layer_linear1.weight f4 [12, 12]
00000000: 2b85 a8bc 390d 6fbe 10b1 0d3f c8da c03e
00000010: 9187 b63e b549 0e3e ea43 30be dc7c 42be
00000020: 3ad6 9a3d efe0 b13e c0a9 91bd 74f3 c4be
00000030: cff1 2c3e 772d 55be f059 d43d dfe5 ba3d
00000040: 3e9c 59be 9a36 a73e 5a40 933e 1e20 b1be
00000050: bc10 80be a60b 60be 732a 3cbe 2773 1e3d
00000060: c11a 5f3e b45b babe 41ea 0ebe 1414 c3be
00000070: 2855 cebe 6022 6bbe f1e8 7b3e 50a7 55be
00000080: 40bb 73be 9a6a 673f ca39 f2be 645f e73c
00000090: 5671 593d 6185 793d 1236 85be db4d dbbe
000000a0: 6cfd 2ebe 8615 d3be 2787 cbbb 236a bfba
000000b0: aae3 ea3e aa64 683d 656c 3cbd 5fe0 803d
000000c0: 596c ebbd aff6 0c3f f400 0b3d 6e7a fe3d
000000d0: 32b5 00be 5cf2 c7be 149f edbd 76fd 75be
000000e0: dcb3 273f f433 013f c014 06be c358 c63e
000000f0: a050 8cbe 9a4e 6a3e 4907 753e 1e5d 13bf
00000100: d6c8 773e 7e4d cabe 86d5 323d d143 d43e
00000110: 6bf5 3e3e ba0b f7ba 2e42 b6be 326d e9be
00000120: 3a7f ab3e 1c3c 7bbe 03ec 48bd 7655 933e
00000130: b4dc acbd f8d0 393f 7ea8 32be e322 85be
00000140: 6857 d9be 8f66 023d 5eec f6be 7b3f 40be
00000150: 65b9 54be 8040 c03d 93b9 de3e 8b5d 66be
00000160: ca9c c6bd 3962 133e 9854 22bd 933c cfbe
00000170: 0728 1b3e d3bc 393e 80ce 61be 6b05 0a3e
00000180: 5dde 86be 904b c23d 1644 393e 2c50 623e
00000190: fbdd 2fbe 3475 c03e 31a1 56be 4fde febe
000001a0: d0a3 ad3c 2c4f 3b3e daa1 4b3d 49ad 773e
000001b0: a1a6 87bc 7762 e9be 22b9 1d3f 98cf 12bf
000001c0: e467 703e 7b01 c0be e2e0 d1be 5de0 cdbd
000001d0: b022 893d 85be b13e a380 c93e 28cd b4be
000001e0: 13af fe3d c41a 37bd 870e b43d 326f 1abe
000001f0: e63a 90bc 10b5 4cbe 4443 81bd 06ee 9ebe
00000200: d1b4 0f3e ed3c 8bbe f2c6 183d 1218 f93d
00000210: ffea 3ebd 39f6 63be 2c91 c7bc 30a9 643e
00000220: 6b80 aebe 2b51 97be a27d 643d 10a1 2abe
00000230: c0b1 a53e 0c80 813d e341 4e3f c459 07be
-0.020571312 -0.23344888 0.553483 0.37666917 0.35650304 0.13895305 -0.17213407 -0.18992943
0.07560392 0.34741923 -0.07112455 -0.3846699 0.16889118 -0.20818125 0.10368717 0.09125876
-0.21251008 0.32658845 0.28760034 -0.34594816 -0.25012767 -0.21879444 -0.18375568 0.038684037
0.2178755 -0.3639809 -0.13956548 -0.38101256 -0.40299344 -0.22962332 0.24600579 -0.20864606
-0.23801899 0.90397036 -0.47309715 0.028243728 0.0530866 0.060918216 -0.26017815 -0.42832837
-0.1708886 -0.4122736 -0.00621118 -0.0014603775 0.4587682 0.056736626 -0.04600181 0.062927954
-0.11495275 0.5506391 0.033936456 0.12425695 -0.1256912 -0.39052093 -0.11602607 -0.24022469
0.6550882 0.504699 -0.13093853 0.38739595 -0.27405262 0.22881547 0.2392856 -0.5756396
0.24197707 -0.39512247 0.043660663 0.4145799 0.18648307 -0.0018848099 -0.35597366 -0.45591122
0.33495504 -0.24534649 -0.049053203 0.2877614 -0.08440533 0.72584486 -0.17447087 -0.2600318
-0.42449498 0.03183609 -0.4822721 -0.18774216 -0.20773847 0.093873024 0.43500957 -0.22496621
-0.09697874 0.14392938 -0.039631456 -0.40475902 0.15151988 0.18138437 -0.2205143 0.1347863
-0.26341525 0.09487069 0.18092379 0.22100896 -0.17174523 0.3758942 -0.20959927 -0.49778983
0.021196276 0.1829192 0.0497149 0.24187197 -0.016558947 -0.45582935 0.61610615 -0.5734801
0.23477131 -0.3750113 -0.40991884 -0.100525595 0.06696069 0.34715667 0.39355955 -0.35312772
0.124357365 -0.04470326 0.08791833 -0.1508148 -0.01760621 -0.19990945 -0.06311658 -0.31040972
0.1403382 -0.2719492 0.037299104 0.12162794 -0.04661083 -0.22261895 -0.024361216 0.22330165
-0.3408235 -0.29554114 0.055783875 -0.16663003 0.32362175 0.06323251 0.80569285 -0.13217837

layer_linear1.bias f4 [12]
00000000: 9327 be3e e0de 19be 18fa e33d 2439 96be
00000010: afce 923e ab46 3d3e 88da 593e 6c55 9f3e
00000020: f254 15be 39dd 19be 63e1 76be e7aa 53be
0.37139568 -0.15026426 0.11131686 -0.2934047 0.28673312 0.18483989 0.2127477 0.3111986
-0.14583185 -0.15025796 -0.24109416 -0.20670663

layer_linear2.weight f4 [12, 12]
00000000: fb1e 083f 3418 a53e b306 a9be 0ac8 9dbe
00000010: 8c7b 6e3d 77d0 3cbd 8e06 29bf 6874 1c3f
00000020: 85dd b4be 7390 403e 1ba5 8a3e 9e7a 0f3e
00000030: b3b7 4dbe 41c9 503e 00a6 d0be fbfb 6e3f
00000040: 3bd4 48be e371 333e d8d0 c4bd 6211 acbe
00000050: 4d7b d1be 2442 99bd 15bb 533e fe19 cf3e
00000060: 1cb5 e73d 3b08 8d3d 8de7 7d3d d42e b23d
00000070: 68a2 4bbe e0b3 c7bc a058 a93e 030d 08be
00000080: 0e6a a6bd b57d 23bd 480f 183f 0c2e 9b3e
00000090: b284 31bd 900c 0e3f e433 b7be 07c9 383e
000000a0: ba86 5e3c a361 063f 3b4b e8be 32e8 71be
000000b0: 0de7 3abe b686 da3d dd12 26be c83d b3be
000000c0: 0d96 a43d 81f0 3abe a94f 273f edb4 bbbd
000000d0: 9e38 503e 98b8 29be 7dde 9ebe f7ca df3d
000000e0: 6fa6 e3be 205d 373e ed67 7bbe 2b2c b83e
000000f0: 1e09 b53c 2498 1c3e 5cb9 8cbe 381e 403e
00000100: 57fb f0bd ae79 1cbe 80a8 fcbd 4174 4fbd
00000110: 5fc2 583e 8347 883e e7b0 86be 7e62 233d
00000120: 47cc 9dbe 71b8 3d3e ba9a 1abf 2212 adbe
00000130: 0d3e 1c3e 1f03 41be 494a bfbe 1f2b 253e
00000140: 3f6e 82be 203e 89be 0a42 41be d66e 90be
00000150: b4fb d53e 0932 493f 67b0 2fbd 5a84 3cbe
00000160: 658f 32be c200 d13e a0de 053e 5769 f43d
00000170: 16c0 233f 5ec5 a6be c428 b03e 6c44 d93e
00000180: 33eb 4f3e 1212 8dbe 7751 863e b3d7 583e
00000190: d4d6 8abc e577 073f bf90 793e d261 0abe
000001a0: 1eba c9be 82fd e5be f38a fcbe 7196 27bd
000001b0: cb0b d23e 79e6 7e3e df70 55bd c42a d83e
000001c0: 3e7e 963d 98bc dabe 8274 66be 69c9 f0be
000001d0: 3ec8 fc3d 8f58 b0bd 5feb a73e c50f 97be
000001e0: d3f7 a53e 2e3a e83e f238 bc3e 00b8 a6be
000001f0: a0c2 24bf 275f 513d 7c7d e33e 5e55 503e
00000200: bd83 083f 152d 6d3e 5a7e 02bd 60cd 4d3d
00000210: b87a 1fbd b0a8 a1be 4168 6b3e b3fb 883e
00000220: 0d3e cf3e 29c9 593e 1749 2abe ab31 693d
00000230: ae3f 0c3e b396 8abe 8f82 f7be 4d9b 6b3e
0.5317227 0.32245028 -0.33012924 -0.3081668 0.058223292 -0.046097245 -0.66025627 0.6111512
-0.35325256 0.18805103 0.2707909 0.14011618 -0.20089607 0.20389272 -0.40751648 0.9335324
-0.1961221 0.17523913 -0.09610146 -0.33607012 -0.40914384 -0.074833184 0.20676835 0.40449518
0.11313841 0.068863355 0.061988402 0.08700338 -0.19886172 -0.024377763 0.33075428 -0.13286214
-0.08125697 -0.039914805 0.5939832 0.30308568 -0.04333944 0.5548792 -0.35781777 0.18045436
0.013581926 0.5249273 -0.45369896 -0.23623732 -0.18252201 0.10670225 -0.16218133 -0.35008073
0.080364324 -0.18255807 0.65355927 -0.09165368 0.20334098 -0.16574323 -0.3102912 0.10927384
-0.44462916 0.17906618 -0.24551363 0.35971197 0.022099074 0.15292412 -0.27485168 0.18761528
-0.11766689 -0.15280792 -0.12336826 -0.050647978 0.21167897 0.2661706 -0.2630684 0.03988885
-0.30819914 0.1852739 -0.60392344 -0.33802897 0.15258045 -0.18848847 -0.37361363 0.1612973
-0.25474736 -0.2680521 -0.18872848 -0.2820956 0.41793597 0.7859197 -0.04289284 -0.18409863
-0.17437513 0.4082089 0.13073206 0.119341545 0.63964975 -0.32572454 0.34406102 0.42435014
0.20304565 -0.2755285 0.26234028 0.21176033 -0.016948141 0.5291732 0.24371623 -0.13513878
-0.3939981 -0.44919974 -0.4932476 -0.040914956 0.41024622 0.24892606 -0.052109595 0.42220128
0.073482975 -0.4272201 -0.22505382 -0.47028664 0.12342881 -0.08610641 0.3279676 -0.2950422
0.32415637 0.45356888 0.36762196 -0.32562256 -0.64359474 0.051116135 0.44431674 0.20345065
0.53326017 0.23161729 -0.03185878 0.05024469 -0.038935393 -0.3157401 0.22988988 0.2675453
0.40477028 0.21268143 -0.16629444 0.056932133 0.13696167 -0.270681 -0.48341796 0.23008461

layer_linear2.bias f4 [12]
00000000: d454 7bbd b1a3 b8be 8be1 8ebe 25aa 023d
00000010: 8e7a 033e 1a86 2fbe 8ad6 f93d e4e3 e13c
00000020: 7334 1d3e 9110 07be e8e0 06bd c909 083d
-0.061360195 -0.36062387 -0.2790645 0.031900544 0.1283972 -0.17141 0.12199123 0.027574487
0.15352039 -0.13189913 -0.03292933 0.033212457

layer_linear3.weight f4 [12, 12]
00000000: da74 90bd 00a1 773e 0c59 643e 0b9b bc3e
00000010: 6aa4 80be f5eb 24be bea5 bc3e 9dac cebe
00000020: 2d8f 453e 6f75 07bf 019b ef3e 4ac6 ed3d
00000030: 10df 283e d528 0c3e 071e 533e e9d2 523e
00000040: 8028 c53e 50ce a1be e34e 3e3d c587 893e
00000050: c29b ecbe 6e99 563e 5591 003f 3251 b2be
00000060: 5341 c93d 4bab e5bd db38 263e 9ddd 89be
00000070: 6111 123f bc28 60be 7694 b9bd 475c 7dbe
00000080: b800 903d e3d9 5b3c d7cc 81be 9ec1 cf3e
00000090: 5613 bd3e a888 ccbe ef1d c23e 8f08 ca3d
000000a0: a7ea d73e fdeb ed3e 54e9 b2be aac6 b8be
000000b0: 36a6 073e a3d9 153e 8770 cc3e eb6a 543e
000000c0: 940b 24bf 1350 0abe ba1f 9e3e fde5 383e
000000d0: 0ff3 373e 1f42 133e 6a3a 333d 5e3e 7abe
000000e0: 8da3 65bf 73b4 edbd 9365 dabe a629 babd
000000f0: d96e 7c3e 7881 623b 0d03 7a3e 6b7f 36be
00000100: e892 86be f8f1 d03e b0f5 f8be e96c 323c
00000110: 6bdf 343d 40fd be3d b9c8 f63e 7f6a 2fbd
00000120: 2508 253f 44eb a9be e99a 6b3d 2f7a c8be
00000130: f706 c93e 75e7 0abf 02e4 413e 0a3d 06bf
00000140: d304 3dbe 28d6 63be 086e 8abe 6904 cd3d
00000150: 7322 81be ec8b ec3c 693b 3d3e 6ddf 41bf
00000160: 1c73 09be c0e6 82be 1a76 d03c 8706 44be
00000170: 9a66 37be 4976 5a3d a35c 493e b64a 913d
00000180: 3be5 01be 3f52 3b3d e5bb b33e 439a e73e
00000190: bf2f 85be b35c 243e acd1 d83e 1398 d03d
000001a0: 4dec 8f3e 4f77 9dbc 3f53 0c3e b982 f63d
000001b0: 7c88 fd3e 18b3 69be 0801 39be 2261 ebbe
000001c0: f999 173f 4560 f93e 2813 d63e 76bb a9bd
000001d0: cb39 90be 50e8 63bc 64c4 bbbe 49f2 673e
000001e0: 0a2c e6be a5d9 143e 05e2 b3bc c7e8 943d
000001f0: 9bfa 15bf 002e 91bd 7705 043e 4e69 b1bd
00000200: 86c0 6a3f 55dd d1bd 2a7e 1bbe 6ca8 bb3e
00000210: 9eea 4b3d fa52 913e 643d bb3d cbf1 ec3e
00000220: ec7e 4fbe a602 0e3e 5313 703e 7b5c 90be
00000230: 6fdd 42bd 2bd5 c43d b6e1 e53e 7fb4 ee3e
-0.07053538 0.2418251 0.22299594 0.36837038 -0.25125438 -0.16105635 0.368452 -0.40366068
0.19292898 -0.52913564 0.46797946 0.11610086 0.16491342 0.13687451 0.20616923 0.20588268
0.38507462 -0.31602716 0.04646195 0.26861396 -0.46212584 0.20956966 0.5022176 -0.34827572
0.09826913 -0.11214312 0.16232626 -0.2692689 0.5705777 -0.21890539 -0.0906152 -0.24742232
0.07031387 0.013418647 -0.25351593 0.40577406 0.36928815 -0.3994801 0.37913463 0.09864914
0.42171213 0.46469107 -0.3494364 -0.3608907 0.13246998 0.14633803 0.39929602 0.20743911
-0.64080167 -0.13507108 0.3088358 0.18056484 0.17963813 0.14380692 0.04375688 -0.24437854
-0.89702684 -0.116066836 -0.4265562 -0.09089975 0.2465166 0.0034562033 0.24415226 -0.17822044
-0.26283956 0.40809608 -0.48624945 0.010890224 0.04415838 0.09325647 0.48200014 -0.042826172
0.6446555 -0.33187306 0.05752078 -0.3915572 0.39263126 -0.54259425 0.18934634 -0.5243689
-0.18458872 -0.22249663 -0.27037072 0.10010607 -0.25221595 0.028875314 0.18479694 -0.75731546
-0.13422817 -0.25566673 0.02544694 -0.19143115 -0.17910233 0.05333546 0.19664244 0.07094328
-0.126851 0.045732733 0.3510429 0.4523488 -0.2601299 0.16050987 0.42347467 0.10185256
0.2810997 -0.01922193 0.13703631 0.12036652 0.49518192 -0.22822225 -0.180668 -0.45972544
0.5921932 0.4870626 0.4181149 -0.082877085 -0.28169093 -0.013910368 -0.36673272 0.22651018
-0.44955474 0.1453615 -0.02195836 0.07270961 -0.5858552 -0.07088852 0.1289271 -0.086626634
0.9170002 -0.10247294 -0.15184847 0.36651933 0.049784295 0.2838362 0.09142569 0.46278223
-0.2026326 0.13868198 0.23444872 -0.28195557 -0.047574457 0.09610971 0.44898766 0.46622083

layer_linear3.bias f4 [12]
00000000: 1819 853e bfe2 d43c ac62 35be 6d60 ff3d
00000010: dc37 763d fff6 b1bd ed2e a33d 2970 50be
00000020: 1c39 45bd e9c7 343e 067a 913e c8a6 a73e
0.25995708 0.025987027 -0.17713422 0.12469564 0.060111865 -0.08689689 0.07967935 -0.20355286
-0.048150167 0.17654385 0.2841341 0.32744431

layer_linear4.weight f4 [12, 12]
00000000: fa8f 433d 02b8 6e3e 04a3 8b3e 92b2 cdbe
00000010: c6b8 d03e 7e6c 193f 9ce9 133f c24c 2b3e
00000020: 1984 2f3d 9a9d 963d bec0 f8be 3a34 b13b
00000030: 9dd9 07bd f6c4 013d ea08 60bc 0767 d53e
00000040: 754b c23e 9b6a 27bd b21a 233e 2b69 cc3e
00000050: f9fb 8bbe 6cd4 63be f1a5 b53c ade3 1ebe
00000060: e217 1dbe 79c8 9fbe a30a f83d 1d3b a6bc
00000070: 6bf4 14be 2b8b 913e 238e 87bd f0f5 653d
00000080: 8f01 e6be c49f 29bc 4357 5a3d 45f9 f7be
00000090: 3905 cabd 6fd6 173d 61a8 86bc ee38 acbe
000000a0: 0678 d6bd 1232 8cbe 8b7f 0abf 39f3 49bf
000000b0: 058a 653e c9b3 a7be efd2 043e 52cc 22be
000000c0: eb0c 67be c7d4 153f 8bdb 5c3c ed35 0f3e
000000d0: 8f3a 2e3a a5a6 f0bd f7ce 8bbd bb55 4abe
000000e0: e1b4 7c3e 37c5 8dbd 1570 d4be bb5e f93d
000000f0: fa5f edbe fd69 f63e 0479 9b3e 30aa 773d
00000100: 76a0 343d b427 67be b0cb 7e3e beb2 f9bc
00000110: 634a 913e 94bb 47be 9f2c 6d3e c008 1dbf
00000120: 73f7 afbe dfcb d8bd dfb6 fd3e 9637 00be
00000130: ac15 7abc 7453 ed3d d8e2 77be eaca 773e
00000140: bc99 dcbe 111e 4d3e 83b0 863d f07e 343e
00000150: 0684 063e 97bb 2fbf 99f2 753d c117 97be
00000160: 6aac 29bf d0b0 e8be 58ce 233e 1d02 fbbd
00000170: a0fd 8f3e a731 3dbe 8999 153e 5418 283e
00000180: 2af1 dfbe c4d7 1b3e 336f e13e b52c 843c
00000190: d086 1fbe b6c0 843d 4ae4 c0be e316 7f3e
000001a0: b50c 083c 7dcd ba3e 2cd2 0dbf 4930 fdbc
000001b0: f1fb 8b3e fa5f b6be b2d1 50bd e2ed 43be
000001c0: ccc3 5ebe 112e 5cbe f1b1 bfbc b968 6b3d
000001d0: 6233 9abe 4886 c5be 1481 1c3f dd5f e83e
000001e0: b261 57be eb75 9abb 2ade a73e d107 02bd
000001f0: 4674 53bd 6237 d3be 0041 703d d451 0ebe
00000200: ebcf 12be 4408 123e 3679 a7be 8301 743e
00000210: 530b a5bb 5f06 60be fbe9 803e 29ed fa3e
00000220: 03cf be3e 37f1 f33e 9436 c8bd 7152 4fbd
00000230: d8a1 0dbe c764 e43c 0b26 00bf 047b 173d
0.04774473 0.23312381 0.2727281 -0.401753 0.4076597 0.5993117 0.57778335 0.167285
0.042850588 0.07354279 -0.4858455 0.005407837 -0.033166517 0.031681977 -0.013674 0.41680166
0.37948194 -0.04087315 0.15928152 0.39923987 -0.27340677 -0.22249001 0.022173854 -0.15516539
-0.15341142 -0.31207636 0.12111404 -0.02029186 -0.14546363 0.2842649 -0.06618907 0.056142747
-0.44923064 -0.0103530325 0.053305876 -0.48432365 -0.098642774 0.037069734 -0.016437711 -0.33637184
-0.104721114 -0.2738195 -0.54100865 -0.78886753 0.22415932 -0.32754353 0.1297109 -0.15898255
-0.22563522 0.585278 0.0134800775 0.13985415 0.0006646299 -0.11750535 -0.06826585 -0.19759266
0.24678375 -0.06922381 -0.41491762 0.121762715 -0.46362287 0.48127738 0.30365765 0.060465038
0.04409834 -0.2257374 0.24882388 -0.030480739 0.28377065 -0.19505149 0.23161553 -0.61341476
-0.34368476 -0.1058576 0.49553582 -0.12521204 -0.015263956 0.11588183 -0.24207628 0.241985
-0.4308604 0.20031 0.06576636 0.17626548 0.131363 -0.68645614 0.060045812 -0.2951031
-0.6627871 -0.45447397 0.15996683 -0.122562625 0.28123188 -0.18475972 0.1460935 0.1641553
-0.4373868 0.15219027 0.4403015 0.0161346 -0.1557877 0.06482069 -0.3767417 0.24911074
0.008303811 0.364849 -0.5539882 -0.030906813 0.27340654 -0.356201 -0.05098123 -0.19133714
-0.21754378 -0.21501948 -0.023400279 0.05747292 -0.30117327 -0.3857901 0.6113446 0.45385638
-0.21033362 -0.004713764 0.32786685 -0.031745736 -0.05162456 -0.4125319 0.05865574 -0.13898402
-0.14337127 0.14260966 -0.32709664 0.23828702 -0.0050367503 -0.2187743 0.25178513 0.49009064
0.37267312 0.4764497 -0.09776035 -0.05061573 -0.1383127 0.027880086 -0.5005805 0.03698255

layer_linear4.bias f4 [12]
00000000: 28ab 44be 8975 42be 5155 df3d 9740 093e
00000010: f13d a7bd 095f 9fbe bfec 073e af43 c8bd
00000020: 2d93 303e 5c6a 90bc 16f9 923d 4ad8 273e
-0.19205916 -0.18990149 0.10904945 0.13403545 -0.08166111 -0.31127194 0.13273905 -0.097785346
0.17243643 -0.017628841 0.071764156 0.16391101

last_layer.weight f4 [3, 12]
00000000: 5f68 ce3e 34b6 de3e 68d2 163f 5290 35bf
00000010: 7810 f53e 2c54 043f a698 1e3f dd21 8fbe
00000020: 75e3 313e 4a50 c3be f204 2e3e 6934 313f
00000030: 7397 053e b327 22be da4e 8dbe 988b 103f
00000040: b768 f8bc 513f 06be 7643 e5be 80b2 733f
00000050: 1330 c6be d9da 4b3f a3fc c7be 5f01 753e
00000060: 371d 83bf 60c0 b8bc c90a 27bf ef3a 123f
00000070: 9e50 02bf 35e1 2f3e b62e 9abe 4f42 c73e
00000080: 8f11 29bf 2cf4 e6bd 917a cabd 27a6 0abf
0.40314004 0.43498385 0.58914804 -0.7092334 0.47864127 0.51690936 0.61951673 -0.27955523
0.17371924 -0.38147193 0.16994074 0.69220597 0.13046055 -0.15835457 -0.2759922 0.56463003
-0.03032337 -0.13110091 -0.4477803 0.95194244 -0.38708553 0.7963081 -0.39059934 0.23926304
-1.0243291 -0.022552669 -0.6525083 0.57121176 -0.5090426 0.17175753 -0.30113763 0.38917777
-0.6604242 -0.11277041 -0.09886659 -0.5415978

last_layer.bias f4 [3]
00000000: 4558 c23d 5aae 9f3e 035b 3c3e
0.09489492 0.31187707 0.18394093
